tflite/model.tflite (tflite, 72588 bytes, 4 tensors)

sequential/dense_1/BiasAdd/ReadVariableOp/resource f4 [10]
0	0xbedd3d8e	-0.43211025
1	0xbd6240e4	-0.055237666
2	0xbe819975	-0.2531239
3	0xbebe1fce	-0.3713364
4	0xbe18acec	-0.14909714
5	0xc03947c1	-2.8950045
6	0xbf2342c6	-0.63773763
7	0x3d934ee4	0.071927816
8	0xbe38072c	-0.17971486
9	0xbc4664e3	-0.012109014

sequential/dense/BiasAdd/ReadVariableOp/resource f4 [128]
0	0x3dcfb0d1	0.10141147
1	0x3e2d492e	0.16922447
2	0x3e18d972	0.14926699
3	0xbddf050f	-0.10889637
4	0x3dc18986	0.09450059
5	0x3de79600	0.11307907
6	0x3dd4cdc1	0.10390807
7	0x3e41c6b1	0.18923451
8	0x3e366726	0.17812786
9	0x3e51d363	0.20490794
10	0x3e815d54	0.25266516
11	0x3e219856	0.15780768
12	0x3dcca17b	0.099917375
13	0x3dc56b3c	0.09639594
14	0x3e1e7e82	0.15477946
15	0x3e146ffd	0.14495845
16	0x3db5ad27	0.08870917
17	0x3e21183a	0.15731898
18	0x3e14ee21	0.14543964
19	0x3ce819e9	0.028332667
20	0xbd6e878a	-0.05823473
21	0x3e4420a7	0.19153081
22	0x3dc5f49b	0.096657954
23	0x3df3601f	0.11883568
24	0x3d865eb3	0.06561031
25	0x3e94edf6	0.290878
26	0x3e131b5c	0.14365906
27	0x3e68456f	0.22682737
28	0x3ea53218	0.3226478
29	0x3e417d93	0.18895559
30	0x3e8409fd	0.2578887
31	0x3e0bd984	0.13657194
32	0x3e3c7a93	0.18406133
33	0x3eb05ed3	0.34447345
34	0xbca29fac	-0.019851528
35	0x3e47c87b	0.19510071
36	0x3df9b3be	0.12192486
37	0x3d38cf9f	0.045119878
38	0x3e8b9d13	0.27268276
39	0x3baad0a5	0.0052128606
40	0xbd7634d8	-0.06010899
41	0x3e187726	0.14889202
42	0x3e178b46	0.14799222
43	0x3e5dc6ae	0.21657822
44	0x3cd287c6	0.025699507
45	0x3e3d9afd	0.18516155
46	0x3e2d64cd	0.16932984
47	0x3d159237	0.036516394
48	0x3e13940f	0.14411949
49	0x3e60c788	0.21951115
50	0x3e5f53c5	0.218093
51	0x3e070f02	0.13189319
52	0x3e083bd7	0.13304077
53	0xbca15788	-0.019695058
54	0x3d707a39	0.05871031
55	0x3e7ca0e7	0.24670754
56	0x3e500bce	0.20317003
57	0x3d9ec5f2	0.07752599
58	0x3e822b35	0.2542359
59	0x3e2894a6	0.16462955
60	0xbe08bea4	-0.13353974
61	0xbc228540	-0.009919465
62	0x3db453e9	0.08805067
63	0x3e0c4dc0	0.13701534
64	0x3dc0c19f	0.0941193
65	0x3e001613	0.1250842
66	0x3e8db3a9	0.27676132
67	0x3aff18bc	0.0019462327
68	0x3e09714b	0.13422124
69	0x3d4f64ce	0.050633244
70	0x3e6aa284	0.22913557
71	0xbdcfc10c	-0.10144243
72	0x3de1c476	0.110238
73	0x3e454ea6	0.19268283
74	0x3da86024	0.08221462
75	0xbcaf570a	-0.021403808
76	0x3c1cedd1	0.009578184
77	0x3e4a61fe	0.19763944
78	0xbcf96a0e	-0.030446079
79	0x3e32a983	0.17447476
80	0x3e7d5409	0.24739088
81	0x3e1e8870	0.15481734
82	0x3e42656a	0.18983999
83	0x3d4faa52	0.05069954
84	0x3e7dc479	0.2478198
85	0x3e826239	0.25465563
86	0x3e0d6883	0.138094
87	0x3dd27fe0	0.102782965
88	0x3e50d14c	0.2039234
89	0x3d78aed0	0.06071359
90	0x3e1d0a07	0.15335856
91	0x3e04b5b5	0.1295994
92	0x3d27b2a1	0.04094184
93	0xbc465540	-0.012105286
94	0x3b278549	0.0025561622
95	0x3d834c94	0.064110905
96	0x3e51c011	0.20483424
97	0xbe29d1fb	-0.16584007
98	0x3e72bbd8	0.23704469
99	0x3e08c67a	0.13356963
100	0x3de8bad5	0.113637604
101	0x3ed6c5f2	0.41947895
102	0x3e3604e5	0.17775305
103	0xbd991aba	-0.07475801
104	0x3e0e90e2	0.13922456
105	0xbd86211a	-0.06549282
106	0x3ce90095	0.02844266
107	0x3e579a60	0.21054983
108	0x3de7fd2b	0.11327585
109	0x3e7c564c	0.24642295
110	0x3e5af81a	0.21383706
111	0x3d908460	0.070564985
112	0xbe101017	-0.14068638
113	0x3e41a42e	0.18910286
114	0x3d000437	0.03125402
115	0x3e02b57e	0.12764546
116	0x3e161da4	0.14659745
117	0x3da9f817	0.082992725
118	0x3ddcff0a	0.10790832
119	0x3d92e3f2	0.07172383
120	0x3e0f5fa6	0.1400133
121	0x3dd356ae	0.10319267
122	0x3e0cc53f	0.13747118
123	0x3e53da6f	0.20688795
124	0x3e772625	0.24135645
125	0x3db4fe97	0.08837622
126	0xbdd837be	-0.10557507
127	0x3dd4ce4f	0.10390913

sequential/dense/MatMul f4 [128, 128]
0	0xbde21497	-0.110390835
1	0x3caf256b	0.021380147
2	0xbdafa47f	-0.08576297
3	0xbeaa9378	-0.33315635
4	0xbe814ca8	-0.25253797
5	0x3ea56f8e	0.32311672
6	0xbedb6353	-0.42849216
7	0x3e9e7c68	0.3095429
8	0x3e2964cf	0.16542362
9	0xbeea8f02	-0.4581223
10	0xbcd95472	-0.026529524
11	0xbcee98ee	-0.029125657
12	0xbd800f42	-0.0625291
13	0xbf1276ec	-0.5721271
14	0x3e1bbf2d	0.15209647
15	0x3d8b9eb8	0.068173826
16	0x3d060ce3	0.032727133
17	0xbe300579	-0.17189588
18	0x3e251389	0.16120733
19	0x3eb04223	0.34425458
20	0xbf0585fa	-0.52157557
21	0x3d900715	0.07032601
22	0x3ec358b8	0.38153625
23	0x3ed2e456	0.41189831
24	0xbdc3869a	-0.095471576
25	0xbd624e78	-0.055250615
26	0x3d1132c9	0.035448823
27	0x3e85f4cd	0.2616333
28	0x3d6a1916	0.05715283
29	0x3db2c9b7	0.0872988
30	0xbe691f09	-0.22765745
31	0xbe64105b	-0.22271864
32	0xbe06e6ed	-0.13174029
33	0x3ea94dc5	0.33067146
34	0xbeabac96	-0.3353011
35	0x3e8e30d1	0.2777162
36	0x3ecc5bff	0.39913937
37	0x3cd0ded0	0.02549687
38	0x3e96c0ad	0.29443875
39	0x3a2fb83f	0.0006703175
40	0xbe59f4a3	-0.21284728
41	0x3dcdcae7	0.10048466
42	0x3e0b3573	0.13594608
43	0xbe02cac3	-0.1277266
44	0x3d5e8dee	0.054334573
45	0xbe80883b	-0.25103936
46	0x3ce5236c	0.027970992
47	0xbf03ac76	-0.5143503
48	0xbe344f62	-0.17608407
49	0xbdfb93b4	-0.122840315
50	0x3e2024ac	0.15638989
51	0xbeb81c79	-0.35959223
52	0x3ee65f54	0.44994605
53	0x3e27ea4c	0.16397971
54	0xbebb8062	-0.36621386
55	0x3eaa1831	0.33221582
56	0xbeacbcf8	-0.33737922
57	0x3c499523	0.012303623
58	0xbe317b91	-0.17332293
59	0xbe6eb881	-0.2331257
60	0x3e613309	0.21992125
61	0x3eb6219b	0.35572514
62	0xbf166e81	-0.58762366
63	0x3d42ff58	0.047606796
64	0xbe5053f3	-0.20344524
65	0x3e9eaa11	0.30989125
66	0x3ec99e28	0.39378476
67	0xbe9805c7	-0.29691908
68	0x3e862b43	0.2620488
69	0x3d320ab6	0.043467246
70	0x3ee10202	0.43946844
71	0xbec7a527	-0.3899319
72	0x3e6edeca	0.23327175
73	0xbe0a5097	-0.13507305
74	0x3dd333e1	0.103126295
75	0xbdcbfe37	-0.09960597
76	0xbe8f2f62	-0.27965838
77	0xbd2907cf	-0.041267212
78	0x3f281ae8	0.65666056
79	0x3cfe91ba	0.031075347
80	0x3e9d02d8	0.30666232
81	0xbe1d4717	-0.1535915
82	0xbdeb6783	-0.11494353
83	0x3dce940c	0.100868315
84	0x3e9efc16	0.310517
85	0x3e679450	0.2261517
86	0x3e8cef55	0.27526346
87	0x3ed13df8	0.4086759
88	0xbde6e444	-0.11274007
89	0x3e905412	0.2818914
90	0x3e067918	0.13132131
91	0xbea68321	-0.32521918
92	0xbeb55b77	-0.35421345
93	0xbe16113d	-0.14655013
94	0x3d28a6f1	0.041174833
95	0x3cb45958	0.022015259
96	0x3ec65a39	0.3874071
97	0x3da42de8	0.080165684
98	0xbdf0179e	-0.117232546
99	0x3f0fac4d	0.56122285
100	0x3dbfb271	0.09360207
101	0x3cb24789	0.021762626
102	0x3ea8c7e1	0.32964996
103	0x3e10e152	0.14148453
104	0xbd635c2b	-0.05550782
105	0x3eb3ec5a	0.3514126
106	0xbea2fe23	-0.31834516
107	0x3e38fcc2	0.1806517
108	0xbe86aea2	-0.2630511
109	0x3db7e43c	0.08979079
110	0x3e4633aa	0.19355646
111	0x3dcd434b	0.10022601
112	0xbddb2f13	-0.10702338
113	0xbe23210e	-0.15930578
114	0xbdd4129d	-0.10355113
115	0xbec4de95	-0.38451067
116	0xbeaf5c74	-0.34250224
117	0x3ee99a0a	0.45625335
118	0xbe548f08	-0.20757687
119	0xbed065a6	-0.40702552
120	0xbd9f1db9	-0.07769341
121	0xbd8cfe81	-0.0688448
122	0x3d6db1fc	0.058031067
123	0xbc258cb0	-0.010104343
124	0xbe063184	-0.13104826
125	0xbee4525b	-0.44594082
126	0x3d15ad3f	0.036542173
127	0xbe01f9e4	-0.12692982
128	0xbe9de29c	-0.30836952
129	0x3da23099	0.079194255
130	0xbeace6ea	-0.33769923
131	0xbf0f68af	-0.5601911
132	0xbdbe3d5b	-0.092890464
133	0x3e69fa66	0.22849426
134	0xbeb87244	-0.36024678
135	0x3c2da2c3	0.010597887
136	0x3e56149f	0.20906304
137	0xbf05e73f	-0.5230598
138	0x3dd2e3c9	0.10297353
139	0x3ebddc48	0.37082124
140	0x3e1065e9	0.14101376
141	0xbee07d40	-0.43845558
142	0x3ebe1648	0.37126374
143	0x3e1489fe	0.14505765
144	0xbe185ee4	-0.14879948
145	0xbe90a700	-0.2825241
146	0xbc19500e	-0.009357465
147	0x3eb4097b	0.35163483
148	0x3ddca1ec	0.10773072
149	0x3e7f3cd5	0.2492555
150	0xbe8d1a22	-0.27559
151	0x3f099ea5	0.537577
152	0xbdcb3cbe	-0.09923695
153	0x3c845c51	0.016157301
154	0xbefb3abf	-0.49068257
155	0x3ec8f297	0.3924758
156	0x3e6abb2b	0.22922961
157	0xbe3d2744	-0.1847201
158	0x3e51af14	0.20476943
159	0x3e48795a	0.19577542
160	0x3e675a86	0.22593126
161	0x3ed927e7	0.42413256
162	0x3e7844f8	0.2424506
163	0x3e7148da	0.23562947
164	0x3e7750a6	0.24151859
165	0xbece3090	-0.40271425
166	0x3e98cb0f	0.2984242
167	0x3d56f34e	0.052478127
168	0x3e1c4c91	0.15263583
169	0x3f0cf5ba	0.5506245
170	0x3ea70e5f	0.32628152
171	0xbe6f4728	-0.23366988
172	0xbda9cf2b	-0.08291467
173	0xbe1adcd2	-0.15123299
174	0xbdc4dbf3	-0.096122645
175	0x3e3e0def	0.18560003
176	0xbdae9f3e	-0.08526467
177	0x3c6e6783	0.014551046
178	0x3ea206aa	0.3164571
179	0xbdab987f	-0.08378696
180	0x3deac2c5	0.114629306
181	0x3e6a18ab	0.22860973
182	0xbec513e1	-0.3849173
183	0x3e3403f2	0.1757963
184	0xbe673e7c	-0.2258243
185	0xbec1a69f	-0.37822434
186	0xbebadec4	-0.36498082
187	0xbda2af78	-0.07943624
188	0x3f2b6a17	0.66958755
189	0x3d500cf2	0.050793596
190	0xbf0793f8	-0.5296016
191	0xbbb830e8	-0.0056210645
192	0xbd943268	-0.07236177
193	0x3ed2c32c	0.4116453
194	0x3f0a5791	0.54039866
195	0xbe6bd863	-0.23031764
196	0x3f0b80ed	0.544936
197	0xbe929cd3	-0.28635272
198	0x3ea791b4	0.3272835
199	0xbf25a16d	-0.6469944
200	0x3d7a0752	0.061042137
201	0xbda6f822	-0.08152796
202	0x3de9b875	0.114121355
203	0xbe11cdab	-0.14238612
204	0x3e8c3a68	0.2738831
205	0x3d624547	0.05524185
206	0x3ed246a0	0.41069508
207	0x3ecddc0f	0.40206954
208	0xbdc340e1	-0.09533859
209	0xbdf3076a	-0.118666485
210	0xbe8c14ef	-0.2735972
211	0xbea14295	-0.3149611
212	0x3ea3a6b6	0.31963128
213	0xbe256a94	-0.16153938
214	0x3dab7148	0.08371216
215	0x3eb1bc5d	0.34714022
216	0xbe002053	-0.1251233
217	0x3ee24229	0.441911
218	0x3e9901b6	0.29884118
219	0xbea1c273	-0.31593665
220	0xbe6b67da	-0.22988835
221	0x3c9cba1f	0.019131718
222	0x3dbd0983	0.0923033
223	0xbd1ee854	-0.038795784
224	0x3d8d97df	0.06913733
225	0xbd42e4d8	-0.047581524
226	0xbdae5913	-0.08513083
227	0x3d773657	0.060354557
228	0xbd8c2ca7	-0.06844454
229	0xbd8de0ba	-0.06927629
230	0x3dcf3a33	0.101185225
231	0x3e484933	0.19559173
232	0x3dbd9694	0.09257236
233	0x3ebd5a54	0.36982977
234	0x3d86ad13	0.0657598
235	0x3cc0b400	0.02352333
236	0xbe913f6f	-0.28368708
237	0x3de493f2	0.11161031
238	0x3ed21f8e	0.410397
239	0xbec10545	-0.37699333
240	0xbeb8a4bf	-0.3606319
241	0x3cc6a73d	0.024249667
242	0xbc9a68c4	-0.018848784
243	0xbe79e748	-0.24404633
244	0x3d879827	0.06620818
245	0x3e8ee47f	0.27908704
246	0x3ccfced0	0.02536717
247	0xbe70e7dd	-0.23525949
248	0xbe1fe6bd	-0.15615363
249	0x3d2330e4	0.039841548
250	0x3d00881f	0.031379815
251	0x3e82ad87	0.25523016
252	0xbdbd072b	-0.09229883
253	0xbeab77ae	-0.33489746
254	0xbe89edf9	-0.2693937
255	0x3d30f83d	0.04320549

sequential/dense_1/MatMul f4 [10, 128]
0	0xbfd134d6	-1.6344249
1	0xc005d075	-2.0908482
2	0xbfad540a	-1.3541272
3	0xbfa9c31e	-1.326267
4	0xbff5bd7b	-1.919845
5	0xbfec569f	-1.8463935
6	0xbe05eb6c	-0.13078088
7	0xbff284d4	-1.8946786
8	0xc0070b90	-2.1100807
9	0xbfe4f6aa	-1.7887776
10	0xbff549d0	-1.9163151
11	0xbfe4811d	-1.7851902
12	0xbfe66e3e	-1.8002393
13	0xc00b8d50	-2.1805
14	0xc024617f	-2.5684507
15	0xc0167e96	-2.3514762
16	0xbf91e857	-1.139903
17	0xc0046f8b	-2.069308
18	0xbf17cc1e	-0.59295833
19	0xc0000585	-2.000337
20	0xbf397399	-0.72442013
21	0xc00fe35d	-2.2482522
22	0xbfacae1e	-1.3490636
23	0xc03564ce	-2.8342776
24	0xbfd55f33	-1.6669677
25	0xc00cd34b	-2.2003963
26	0xbfda4e21	-1.7055093
27	0xc0056f61	-2.084923
28	0xc0125fc1	-2.2870944
29	0xbff878d9	-1.941188
30	0xc0228162	-2.539147
31	0xc01a892c	-2.4146223
32	0xbfb9902f	-1.4497126
33	0xbe7e4388	-0.24830449
34	0xbfcbeb52	-1.5931189
35	0xbfd5b7aa	-1.6696675
36	0xc01016ee	-2.2513995
37	0xc00ee841	-2.2329257
38	0xc0125c12	-2.2868695
39	0xc0058de5	-2.0867856
40	0xbfc1850f	-1.5118731
41	0xc00e83c6	-2.2267928
42	0xbfa266b2	-1.268759
43	0xbfeb1e18	-1.8368559
44	0xc013f066	-2.3115478
45	0xbe0735e4	-0.13204151
46	0xbfeceb2f	-1.8509272
47	0xbfa8e9eb	-1.3196386
48	0xbeaf41f7	-0.34230015
49	0xbf93da0f	-1.1550921
50	0xbeaeb897	-0.34125206
51	0xc00b41a0	-2.1758804
52	0xc0093210	-2.1436806
53	0x3e6152a9	0.22004189
54	0xc00a4cf8	-2.1609478
55	0xc0162e3c	-2.346572
56	0xc001e23c	-2.0294333
57	0xbfb4c0ea	-1.4121373
58	0xc006a248	-2.1036549
59	0xbfe3f108	-1.7807932
60	0xbe3017e9	-0.17196621
61	0xbf509313	-0.8147442
62	0xbfaaf407	-1.3355721
63	0xbfb98a1e	-1.4495275
64	0xbfb76b22	-1.4329569
65	0xc03f6dad	-2.991069
66	0xc007d6f6	-2.1224952
67	0xc015a4fc	-2.3381948
68	0xbf1c8ff8	-0.6115718
69	0xc01637ee	-2.3471637
70	0xc0101079	-2.2510054
71	0xbfe7cedf	-1.8110007
72	0xbfcf6d2d	-1.6205193
73	0xbfd74b2e	-1.6819818
74	0xbfa9e1f0	-1.3272076
75	0x3ea387ae	0.31939453
76	0xbfea298a	-1.8293927
77	0xbf9e3fd6	-1.2363231
78	0xbfbf5fed	-1.4951149
79	0xbf8f0623	-1.1173748
80	0xbfe5b269	-1.7945071
81	0x3e84d8b7	0.2594659
82	0xbfee5590	-1.8619862
83	0xbfd6fa15	-1.6795069
84	0xbfa098c7	-1.2546624
85	0xbf258d92	-0.64669144
86	0xbf98fb0d	-1.1951615
87	0xbfebcd99	-1.8422118
88	0xc002d514	-2.0442553
89	0xbfb98323	-1.4493145
90	0xbfdfa9c3	-1.7473682
91	0xbfcb4dd0	-1.5883121
92	0xbfe35f84	-1.7763524
93	0xbf8fa188	-1.122117
94	0xc018d491	-2.387974
95	0xbfe38279	-1.7774192
96	0xbff1f301	-1.8902284
97	0xbf2da158	-0.67824316
98	0xc01013dc	-2.2512121
99	0xbff7708f	-1.9331225
100	0xc013be7a	-2.3085008
101	0xbeb904ad	-0.3613638
102	0xbfe430f1	-1.7827436
103	0xbfbc10b1	-1.4692594
104	0xbfbae4bc	-1.4601054
105	0xc003394f	-2.0503728
106	0xc00caeb6	-2.1981635
107	0xbf94f79c	-1.1638064
108	0xbfdbef1b	-1.7182344
109	0xc017448f	-2.3635595
110	0xbf8df4bd	-1.1090313
111	0xc0027e0c	-2.0389433
112	0x3d594e0e	0.053052954
113	0xbfaac26d	-1.3340584
114	0xbfdcf754	-1.7262979
115	0xbfdd4e7e	-1.7289579
116	0xbffabb67	-1.9588441
117	0xc01d9fd6	-2.4628806
118	0xc0146bbf	-2.3190763
119	0xbfc290e8	-1.5200472
120	0xbfb6c039	-1.4277412
121	0xc01d4daf	-2.4578664
122	0xc008b61f	-2.1361158
123	0xbff7ee24	-1.936955
124	0xc0003a3d	-2.0035546
125	0xbfac58ec	-1.3464637
126	0xc0054dfd	-2.082885
127	0xbda7a2a7	-0.0818532
128	0xbfba7b6d	-1.4568917
129	0xbfd03650	-1.6266575
130	0xbfe63364	-1.7984433
131	0xbfa691ed	-1.3013283
132	0xbfa2a415	-1.2706324
133	0xc0046c3e	-2.0691066
134	0xc0191359	-2.391806
135	0xbfdc37bb	-1.7204508
136	0xbffe834f	-1.9883822
137	0xbfcad20c	-1.5845351
138	0xbf8309ed	-1.0237404
139	0xbff950ac	-1.9477744
140	0xbfed7ab5	-1.8553072
141	0xbfd630c9	-1.6733638
142	0xbf773974	-0.9657204
143	0x3d5cc2c0	0.053896666
144	0xbf6785a0	-0.9043827
145	0xbfb3ad4b	-1.403726
146	0xc004f3c2	-2.0773778
147	0xbfb6ddd2	-1.4286444
148	0xbf6d10df	-0.9260387
149	0xbfd288dc	-1.6448016
150	0xbfff99c4	-1.99688
151	0xc00f8c67	-2.2429445
152	0xc0079b5f	-2.118858
153	0xbfc256dc	-1.5182757
154	0xbfc1924e	-1.5122774
155	0xc014cdb5	-2.3250554
156	0xc038e0aa	-2.8887124
157	0xbf042ffa	-0.51635706
158	0xbfd0f928	-1.6326036
159	0xbf8c1cdb	-1.0946306
160	0xc00374a3	-2.053994
161	0x3da198a1	0.0789044
162	0xbfe15268	-1.7603273
163	0xbfd9e4ed	-1.7022988
164	0xbf073a3b	-0.5282323
165	0xbf99bbb2	-1.2010405
166	0xbfd2621b	-1.643619
167	0xbfa54f77	-1.2914876
168	0xbfb60361	-1.4219781
169	0xbff2690d	-1.8938309
170	0xbfbcf7eb	-1.4763159
171	0xbfee44d3	-1.8614753
172	0xc0230ead	-2.5477707
173	0xc01e84be	-2.476852
174	0xbfbdb272	-1.4820082
175	0xbfdb552e	-1.713537
176	0xc05d1d7a	-3.454924
177	0x3e8bf42d	0.2733473
178	0xc02fc146	-2.7461715
179	0xbfdb481b	-1.713138
180	0xbfec2910	-1.8450031
181	0xbfcfb750	-1.6227818
182	0xbffefe80	-1.9921417
183	0xc0041562	-2.063805
184	0xbf9d5448	-1.2291346
185	0xbf92571d	-1.1432835
186	0xbf9ceda0	-1.2260017
187	0xbfbb2557	-1.462077
188	0x3dff36a4	0.12461594
189	0xbf8ba00c	-1.0908217
190	0xbfaf98f0	-1.3718548
191	0xbffadaec	-1.959806
192	0xbffa1ff8	-1.9541006
193	0xbfd0b6ca	-1.6305783
194	0xbfcaf6d1	-1.5856572
195	0xc0098b00	-2.149109
196	0xbfc4cabc	-1.537437
197	0xbfdfa848	-1.747323
198	0xbfc58bb1	-1.5433255
199	0xbf9317ba	-1.1491616
200	0xbff1c9f7	-1.888976
201	0xbfcf4106	-1.6191719
202	0xbfa54f38	-1.2914801
203	0xbfa73cb0	-1.3065395
204	0xbfffc822	-1.9982951
205	0xbf6e7fba	-0.93163645
206	0xbf9e382e	-1.2360895
207	0xbfb6da0e	-1.4285295
208	0xbfbbf47a	-1.4683983
209	0xbfce1329	-1.6099597
210	0xbfb6bd87	-1.4276589
211	0xbf8801b5	-1.0625521
212	0xbfe3ac70	-1.7786999
213	0xc00b91e3	-2.1807792
214	0xbfb8874e	-1.4416292
215	0xbff76c0f	-1.9329852
216	0xc00ad089	-2.168978
217	0xbfd6da09	-1.6785289
218	0xbf5ef409	-0.8709112
219	0xbfda0ccf	-1.7035159
220	0xc001eb21	-2.0299761
221	0xbfa9d6b8	-1.3268652
222	0xbfa20936	-1.2659061
223	0xbfcbd9d9	-1.5925857
224	0xbbfde4d7	-0.007748227
225	0xbf78faaa	-0.97257483
226	0xbfe2323c	-1.767158
227	0xbf153516	-0.5828413
228	0xbf517ed0	-0.81834126
229	0xc076746e	-3.8508563
230	0xbde8331f	-0.113378756
231	0xbfc575a2	-1.5426524
232	0xbfd28a7e	-1.6448514
233	0xbff71685	-1.9303747
234	0xc00f5111	-2.239323
235	0xbf620448	-0.8828778
236	0xbfc8db53	-1.5691932
237	0xbfb716fb	-1.4303888
238	0xbfe3c0ab	-1.7793173
239	0xbec67a69	-0.38765267
240	0xbe486e22	-0.19573262
241	0xbf976cae	-1.1830041
242	0xbfbfc02a	-1.4980519
243	0xbfed475d	-1.8537403
244	0xbfca5f59	-1.5810348
245	0xbfcfaf22	-1.6225321
246	0xbffd194c	-1.9773345
247	0xbf831ab1	-1.024252
248	0xbfd84b5d	-1.6897999
249	0xc004f4f1	-2.07745
250	0xbfd671d7	-1.6753491
251	0xc00606c4	-2.094163
252	0xc0028b9f	-2.0397718
253	0xbfbd27ab	-1.4777731
254	0xbf1ea101	-0.6196442
255	0xbfb4a333	-1.4112304
